buffer/cartpole_buffer_dict_model_best.pkl (torch, 25475 bytes, 45 tensors)

actor.rule_dict.0.0.membership_network_list.0.fc1.weight f4 [4, 1]
00000000: b8a8 4ebf 2257 00be e7ea 8fbf 8a37 1fbf
-0.80726194 -0.12533239 -1.1243562 -0.6219412

actor.rule_dict.0.0.membership_network_list.0.fc1.bias f4 [4]
00000000: e2ed e6be 4615 b23f 5bdc 4b3f e3b5 d73f
-0.45103365 1.3912742 0.7963311 1.6852382

actor.rule_dict.0.0.membership_network_list.0.fc2.weight f4 [4, 4]
00000000: a541 123f 24bb d63f ebc9 893f b05b 1c3f
00000010: 3669 9fbe 6102 b33f 65a1 4c3f 678f b93f
00000020: b757 953e 1773 c23d 2311 88bf 9a5c 8d3e
00000030: 6ab9 cbbe a862 6dbe 80da a93b 1c4e 26be
0.57131416 1.6775861 1.0764745 0.61077404 -0.31134957 1.3985101 0.7993377 1.4496888
0.29168484 0.09494608 -1.063023 0.27609712 -0.39789897 -0.23182166 0.005183518 -0.16240734

actor.rule_dict.0.0.membership_network_list.0.fc2.bias f4 [4]
00000000: b895 453f 2b6f 283f 827b bb3d ce7b edbe
0.7718158 0.6579463 0.091544166 -0.46383518

actor.rule_dict.0.0.membership_network_list.0.fc3.weight f4 [1, 4]
00000000: 0e3d b13f 613d ee3f b90a b3be 0c4d ad3e
1.3846757 1.8612481 -0.34969118 0.33847845

actor.rule_dict.0.0.membership_network_list.1.fc1.weight f4 [4, 1]
00000000: dd10 a6c0 c5ff 8ac0 15bf 06c0 ef4c dd3e
-5.1895585 -4.343722 -2.1054127 0.43222758

actor.rule_dict.0.0.membership_network_list.1.fc1.bias f4 [4]
00000000: 82d4 c33e e0f1 37bd 1314 d73e de97 43be
0.38248068 -0.044908404 0.42007503 -0.19100901

actor.rule_dict.0.0.membership_network_list.1.fc2.weight f4 [4, 4]
00000000: 2cbd 413f ec84 2c3e 947a 82bf e070 863d
00000010: 2206 f8be 1622 213f e4ca 8a3e b130 37bf
00000020: b54f 793f 0c46 f93f 1ab6 df3e 40d3 e4bc
00000030: 8487 05bf 0b44 0a3d 9572 15bf 5b3a 4ebf
0.7567928 0.1684758 -1.0193658 0.06564498 -0.4844218 0.62942636 0.27107918 -0.7155867
0.9738725 1.9474502 0.4369362 -0.027932763 -0.52159905 0.033756297 -0.58377963 -0.80557793

actor.rule_dict.0.0.membership_network_list.1.fc2.bias f4 [4]
00000000: 72c5 4abf d514 f7be 2aeb d3be c40a 823e
-0.7920753 -0.4825808 -0.41390353 0.2539884

actor.rule_dict.0.0.membership_network_list.1.fc3.weight f4 [1, 4]
00000000: 513a 8fbf aa8e 0cbe d0dc d93f 270f d03f
-1.1189672 -0.13726297 1.7020512 1.6254624

actor.rule_dict.0.0.membership_network_list.2.fc1.weight f4 [4, 1]
00000000: cd05 28bf 6049 2cbd 3129 87bf 975a c0bf
-0.6563385 -0.042062163 -1.0559446 -1.5027646

actor.rule_dict.0.0.membership_network_list.2.fc1.bias f4 [4]
00000000: 9647 45bf eca1 bbbe fd65 973f e825 ec3f
-0.77062356 -0.36646974 1.1827999 1.8449068

actor.rule_dict.0.0.membership_network_list.2.fc2.weight f4 [4, 4]
00000000: 78f1 1bbe cad9 99be 4bbd b33f cebb f73e
00000010: 3070 083e 4638 fabe 7f87 c9bd 3607 5f3f
00000020: fdae d9be 304c 55bd 6739 d73f 4b0e 923f
00000030: 51b1 e1be 621c 05bf 9c7d 9bbe 18da 8abe
-0.15228832 -0.30048972 1.4042143 0.4838547 0.13324046 -0.48871058 -0.09840297 0.8712038
-0.42516318 -0.05207461 1.6814393 1.1410612 -0.44080594 -0.51996434 -0.3036927 -0.27119517

actor.rule_dict.0.0.membership_network_list.2.fc2.bias f4 [4]
00000000: 11d5 683f 74f2 9c3e ab0d 813f 4871 3f3e
0.90950114 0.30653727 1.0082296 0.18695557

actor.rule_dict.0.0.membership_network_list.2.fc3.weight f4 [1, 4]
00000000: 755c c83f f66d d13e d9bf e53f 74de 19bf
1.5653216 0.40904206 1.7949172 -0.6010506

actor.rule_dict.0.0.membership_network_list.3.fc1.weight f4 [4, 1]
00000000: b062 afbe 7433 cc3e c3d7 8940 6e21 863f
-0.3425498 0.39883006 4.307588 1.0478952

actor.rule_dict.0.0.membership_network_list.3.fc1.bias f4 [4]
00000000: d4dc 80be 78dd 73bf 8089 a33e 78c8 40bf
-0.25168478 -0.9525981 0.31940842 -0.7530589

actor.rule_dict.0.0.membership_network_list.3.fc2.weight f4 [4, 4]
00000000: e4f0 0d3e 2085 153d 1654 bbbf 3a88 fa3e
00000010: 7882 00bf 2018 69be 584c 39bf d721 55bf
00000020: 92d7 f73e 40fd 703d 91c5 2940 5f6a 303f
00000030: 9ead e83e ba72 b13e 7c24 66be 627f eb3e
0.13861424 0.03650391 -1.4635036 0.48932058 -0.5019908 -0.22763109 -0.72382116 -0.8325476
0.48406655 0.058835268 2.6526835 0.6891231 0.4544496 0.34657842 -0.22474855 0.45995623

actor.rule_dict.0.0.membership_network_list.3.fc2.bias f4 [4]
00000000: 6fba a53f 5691 f5be 7a3a 823e 3c2b 00be
1.294752 -0.47962445 0.2543524 -0.12516493

actor.rule_dict.0.0.membership_network_list.3.fc3.weight f4 [1, 4]
00000000: d5f6 2d40 0029 c23e ceaa ddbf a88d 273e
2.7181904 0.37921906 -1.731775 0.16362631

actor.rule_dict.1.0.membership_network_list.0.fc1.weight f4 [4, 1]
00000000: d2c8 e2bf fc07 2abf 206d 81bf b87a 15c0
-1.7717535 -0.66418433 -1.0111427 -2.3356152

actor.rule_dict.1.0.membership_network_list.0.fc1.bias f4 [4]
00000000: ef68 943e 4cb5 54bf 927c 553f 3bae 443f
0.28986308 -0.8308914 0.83393204 0.76828355

actor.rule_dict.1.0.membership_network_list.0.fc2.weight f4 [4, 4]
00000000: a253 0a3e a3f4 06bf 1c15 1bbe f847 07bf
00000010: 186d b13f 4437 49bf 7a59 af3f 10f4 933f
00000020: 06d2 773e 4cf0 043f 948e e6be 25bf 8f3e
00000030: 34ae 2e3e fac3 963e 525b 2dbf 70de 6dbe
0.13508466 -0.52717036 -0.15144771 -0.5284419 1.3861418 -0.78599954 1.3699181 1.1558857
0.24201211 0.51929164 -0.45030653 0.2807552 0.1705864 0.29446393 -0.6771747 -0.23229384

actor.rule_dict.1.0.membership_network_list.0.fc2.bias f4 [4]
00000000: dfcb 033f 51e4 803e de74 3dbf 1c9a 4fbe
0.5148296 0.25174192 -0.7400645 -0.20273632

actor.rule_dict.1.0.membership_network_list.0.fc3.weight f4 [1, 4]
00000000: 49e7 67bf cf7c cf3f ac12 a5be 9d00 8bbf
-0.9058729 1.6209964 -0.32240808 -1.0859562

actor.rule_dict.1.0.membership_network_list.1.fc1.weight f4 [4, 1]
00000000: e144 5cbe d16a 8540 1082 853f 36be 0f40
-0.2151065 4.169289 1.0430317 2.2459846

actor.rule_dict.1.0.membership_network_list.1.fc1.bias f4 [4]
00000000: 7efc 01be 0682 283f c9b8 7bbe 2a79 003f
-0.12693974 0.658234 -0.24582209 0.5018488

actor.rule_dict.1.0.membership_network_list.1.fc2.weight f4 [4, 4]
00000000: 66b2 d33e 225e 52bf b603 54bf 69ef 34bf
00000010: 32ed a2bd e71b 3740 2f55 7ebf 6e9b f13f
00000020: 897c 483f 25f0 943d 2a1f 693f 8f05 26bf
00000030: 9e68 afbe 78e0 e4bd 90cb c13d 18a8 1abf
0.41347045 -0.82174885 -0.8281816 -0.7067781 -0.07955398 2.861078 -0.9934873 1.8875558
0.78315026 0.072723664 0.9106318 -0.6485223 -0.34259504 -0.111756265 0.094626546 -0.6041274

actor.rule_dict.1.0.membership_network_list.1.fc2.bias f4 [4]
00000000: 26fd 0eba 57a0 46bd 0e78 8ab9 ac93 b4be
-0.0005454592 -0.048492756 -0.0002641086 -0.35268915

actor.rule_dict.1.0.membership_network_list.1.fc3.weight f4 [1, 4]
00000000: a119 32bf 5be1 1b40 7db5 7bbf 7e2b 893f
-0.69570357 2.4356296 -0.98323804 1.0716398

actor.rule_dict.1.0.membership_network_list.2.fc1.weight f4 [4, 1]
00000000: 50ac e4be ac10 c63e f054 e2be d538 2141
-0.44662714 0.38684595 -0.44205427 10.076375

actor.rule_dict.1.0.membership_network_list.2.fc1.bias f4 [4]
00000000: fa83 41bf 44bf 2fbf 3ca6 14bf 031b 083f
-0.75592005 -0.68651223 -0.58066154 0.53166217

actor.rule_dict.1.0.membership_network_list.2.fc2.weight f4 [4, 4]
00000000: f07f 44bd 8f59 243f 8a57 f63e 5c7a 1440
00000010: 26dd e33e f044 053d 9f0e 3f3f af35 dcbe
00000020: 531b 513f 13a5 583f 07c9 533f ad1f cfbe
00000030: 19f1 eabe 906d 603d 4a13 8a3e bc13 33bf
-0.047973573 0.64199156 0.48113662 2.3199682 0.4450466 0.032536447 0.74631685 -0.43009707
0.8168232 0.84626883 0.8272862 -0.40453854 -0.45887068 0.054791987 0.2696784 -0.6995199

actor.rule_dict.1.0.membership_network_list.2.fc2.bias f4 [4]
00000000: 6ed8 b13c 50c0 0b3e 26da ddbe c792 553f
0.021709647 0.1364758 -0.43330497 0.8342709

actor.rule_dict.1.0.membership_network_list.2.fc3.weight f4 [1, 4]
00000000: 7861 dd3f 1fd5 923f 1a85 8cbe 7aca 3dc0
1.729537 1.1471289 -0.27445298 -2.9654832

actor.rule_dict.1.0.membership_network_list.3.fc1.weight f4 [4, 1]
00000000: c800 bc3e 8491 e2c0 bb95 23bf c0ff d83d
0.36719346 -7.080263 -0.63900346 0.105956554

actor.rule_dict.1.0.membership_network_list.3.fc1.bias f4 [4]
00000000: c6d8 21bf b1e5 643e 24f7 34bf 9cff d8be
-0.63221395 0.22353245 -0.70689607 -0.42382514

actor.rule_dict.1.0.membership_network_list.3.fc2.weight f4 [4, 4]
00000000: dc53 28bf d414 82be 4806 aebe 3957 423f
00000010: 1d92 47bf 12e6 02bf f7f6 58bf 84a8 5f3e
00000020: 58a4 2abf f4f4 fc3f 3cff 19bf b504 0ebf
00000030: 5886 e2be 1b4a a73f dbb7 4b3f e5ab 4f3f
-0.6575296 -0.25406516 -0.33989167 0.7591434 -0.77957326 -0.5113231 -0.8475184 0.21841627
-0.6665702 1.9762254 -0.6015508 -0.5547593 -0.4424312 1.306949 0.79577416 0.81121665

actor.rule_dict.1.0.membership_network_list.3.fc2.bias f4 [4]
00000000: 845b 3dbe e6bb fdbe 99fd a8be f634 adbe
-0.18491942 -0.49557418 -0.3300598 -0.33829468

actor.rule_dict.1.0.membership_network_list.3.fc3.weight f4 [1, 4]
00000000: 607e a9bd 9357 89bf 1ce0 e3bf 39a0 37c0
-0.08276057 -1.072985 -1.7802768 -2.8691542

critic.fc1.weight f4 [32, 4]
00000000: 54d5 b1bd 10bb 1f3e 2060 523e e459 393e
00000010: 58d8 ee3d a03c 29be 40e9 8dbb 98d0 543d
00000020: b488 55be 6896 15bd b0bc 50bd dc7c c5be
00000030: 96b3 8d3e e00f 29bd 2cb1 b4be a25f a53e
00000040: 99f0 60be bc01 143e 764a cf3e c0d1 9a3c
00000050: 008c f03d 101a 263e 52fa 9d3e 2044 00be
00000060: 193e 6bbe 28dc 02bd 7e77 a33e 10c7 0f3d
00000070: 4c3b 913e 80eb 46bb d843 003e 2095 683c
00000080: 8092 353c 16e9 c6be 34bc b6be 4802 0b3d
00000090: bce7 4e3e 6e69 8c3e 101c 913c 3037 303e
000000a0: acd7 2e3e 9070 b4be a9b7 b7be b510 a2be
000000b0: c0fe e53b 342b 84be c0c7 05be b82e 7abd
000000c0: 0c1b 233e 08db c13d dce7 c13e 7489 bc3e
000000d0: 0459 85be 0093 a8ba 5811 8a3d 147a b63e
000000e0: b48f 01be 074b 24be 3268 84be 6205 9a3e
000000f0: 14df ecbd a091 1cbe 7c60 8d3e e255 c03e
00000100: b0ef 8cbc 7857 93be 164f aa3e 4cf9 0ebe
00000110: 67a5 40be c1f2 92be 990d 49be 1ab3 a3be
00000120: 614d 71be 4b69 bebe 4884 a8bd 0416 283e
00000130: bfac 9ebe 0076 15ba d428 1abe 5035 4a3e
00000140: 160a b53e 78ab 5dbd 0f67 52be 1c9b a0be
00000150: 7e9c 75be 3866 f13d f8d5 bf3d 5821 613e
00000160: 1878 78bd 64ce 563e 3739 babe f8c1 e03d
00000170: 18eb ca3e afde cebe f104 59be 68cf 853e
00000180: d4b8 82bd 38d6 5ebe 0409 7f3e 502f e03c
00000190: 30fd 823c 2cf3 fdbd 7e7c 9d3e 9ce3 673e
000001a0: 6cc7 953d d831 7f3d 3c2b 583e 3639 823e
000001b0: b17b 2bbe 0035 37bd 2088 373e 8793 4abe
000001c0: 7272 c33e 422e 8fbe fce7 403e d824 96be
000001d0: 7c38 063e 62fe 913e c894 493d 8899 27bd
000001e0: b0eb 843e 5216 96be 4f05 8dbe 5126 b2be
000001f0: fca9 80be e099 2d3c b38f 3dbe d444 ba3d
-0.08683267 0.15598702 0.20544481 0.18100697 0.11662358 -0.16527033 -0.004330784 0.051956743
-0.2085293 -0.03652039 -0.050961196 -0.38571823 0.27676076 -0.041274905 -0.3529142 0.32299525
-0.2196678 0.14453787 0.40486497 0.018898845 0.11745453 0.1622088 0.30855042 -0.12525988
-0.22972907 -0.03194824 0.31927103 0.03510195 0.28365552 -0.0030352771 0.1252588 0.01419571
0.011082292 -0.38849705 -0.35690463 0.033937722 0.20205587 0.27424186 0.017713577 0.17208552
0.1707446 -0.35242128 -0.3588231 -0.3165337 0.007018894 -0.2581421 -0.1306448 -0.06107971
0.15928286 0.09465605 0.37872207 0.36823618 -0.26044476 -0.0012861192 0.06741589 0.35640013
-0.12652475 -0.16044246 -0.25860745 0.30082232 -0.11565986 -0.15289927 0.27612674 0.37565523
-0.017204136 -0.2877767 0.33263463 -0.13962287 -0.18813096 -0.28700832 -0.19634093 -0.3197258
-0.23564674 -0.37189707 -0.08228356 0.16414648 -0.3099117 -0.00057014823 -0.15054637 0.197469
0.35359257 -0.054118603 -0.20547126 -0.3136834 -0.23985478 0.11787075 0.09366983 0.21985376
-0.060661405 0.2097717 -0.36371776 0.109744966 0.39632487 -0.4040427 -0.21193291 0.261348
-0.063829094 -0.21761405 0.24905783 0.02736631 0.01598987 -0.12399897 0.30759043 0.2264542
0.07313427 0.062303394 0.21110243 0.25434273 -0.16746403 -0.04472828 0.17923021 -0.1978284
0.38173252 -0.2796498 0.18838495 -0.29324985 0.13107485 0.2851439 0.049214154 -0.040917903
0.25961065 -0.29313904 -0.27543113 -0.34794858 -0.25129688 0.010595769 -0.18511848 0.09095159

critic.fc1.bias f4 [32]
00000000: f012 1bbd d846 81be a8fb ce3d c06f 423e
00000010: 069a cb3e fcc0 c63e b046 99bd 7ebb e1be
00000020: d853 e7be 4806 ef3e 1055 623e 402f 5f3e
00000030: 207f ddbe 5e0f ed3e 1485 f23e da21 e73e
00000040: 30f5 d7be 8830 41be 4a11 b0be 566c f23e
00000050: 04ff 5bbe 84c1 69be 281f 863e e8d8 6cbe
00000060: dc2b 7cbe 4024 33bd 50da 44bd 226b c7be
00000070: 466b d53e b4da 61be 309d 353e 24aa de3e
-0.037859857 -0.25249362 0.10106593 0.18987942 0.39765948 0.3881911 -0.07484186 -0.44088358
-0.45181155 0.4668448 0.22102761 0.21795368 -0.4326105 0.46300787 0.47367156 0.45143014
-0.4217925 -0.1886617 -0.3438819 0.4734828 -0.21484 -0.22827727 0.26195645 -0.23129618
-0.24626106 -0.043735743 -0.04805976 -0.38948923 0.41683406 -0.22056085 0.17735744 0.43489182

critic.fc2.weight f4 [32, 32]
00000000: 8048 293c 8578 823e 82f3 07be 968b abbd
00000010: b65e 4f3e ac8e 9ebd 9716 963e 3a0f f9bd
00000020: 00c4 5bbb 0492 94bd 5247 123e cc45 f03d
00000030: 52f7 26be de99 4e3e b061 9fbc 6292 9ebd
00000040: 8062 cabb 0234 5a3e 91c7 993e 2490 183e
00000050: d073 5b3d 9e9f 4c3e 311c 03be acda 23be
00000060: b816 b5bd 5aed 4abe 66cf 063e c042 ee3c
00000070: c08a d6bd 70a5 febc 40ef c6bb c96a 863e
00000080: e1f0 8b3e c25f 71be a4d1 e53d 3024 f23d
00000090: 64c5 ef3d 88fa 2abd 94d2 9c3d 28cb 9d3d
000000a0: db94 983e 0c40 96be 26f5 edbd 5ff2 52be
000000b0: 1b16 18be 403c 763d 3e38 3f3e 6e19 6dbe
000000c0: 3aed 4b3e b7f2 823e 208b 1abe 48e5 5a3d
000000d0: 30f6 20be 544f 863d a15c 11be 2647 f4bd
000000e0: a4e2 51be 72ba 82be 8634 7a3e 9060 1ebd
000000f0: 802b 0bbc 6409 1cbe de88 5a3e 7c75 33be
00000100: 34a0 fdbd f1bf 74be 96d2 83be 512d 8b3e
00000110: 321c 72be f824 2dbd fa82 b5bd 14b0 e53d
00000120: c0b8 a73d 555a 70be ebc9 8c3e 3929 9cbe
00000130: 6015 f83c 208d d1bc 4451 91bd daa9 553e
00000140: 7d5c 843e 505e 233d f47a ddbd e618 693e
00000150: fefb 443e e840 613d b882 abbd 607f 533c
00000160: cdb9 8b3e 2801 083d a425 77bd 58ba 84be
00000170: 8e04 28be 1a72 623e a0a6 30bc b008 a7bc
00000180: f827 f43d 7048 4ebe e070 a9bc b45d b0bd
00000190: 440c 243e 7a29 7f3e eede 443e eec1 693e
000001a0: 701a 8cbe c09e debd 9082 143d ae26 85be
000001b0: 581b aa3d 2a84 4dbe 805a 063e 92c2 7d3e
000001c0: 431b 86be ad5c 833e b44b 123e 88e8 4ebe
000001d0: e10d 963e 3ec6 87be e613 53be 6cf7 1bbe
000001e0: c007 7ebc b834 613d c606 b8bd 6d97 94be
000001f0: 68c4 10bd 3ee2 6d3e ee66 713e f6f3 1c3e
00000200: 4816 363d 90cf 9b3d f7b4 71be d8ec fd3d
00000210: 3e05 9cbe fa7a 01be c2ca a4bd 163d 663e
00000220: 603c 12bc 67d1 0ebe e81b 5b3d b614 82be
00000230: 7205 a6bd 10ab ad3d 801e a6bc 90b5 03bd
00000240: e89f 3f3e 752b 6ebe cb4f 1ebe 0fbf 973e
00000250: 488f 793d 100f 4bbd 1a68 223e 1a9e 3c3e
00000260: 6891 51bd a499 02be a0ff 4cbd b4b1 e33d
00000270: 601b 20bd 367a 363e d4ae 7fbe 7fd4 19be
00000280: 1a05 6f3e 7887 243d 488c 7c3d 7c3d ce3d
00000290: 182c 94bd 18c5 fabd 74e5 b33d 5c31 a6bd
000002a0: 4085 01be a0b1 253d 28ad 973d 007a e2bc
000002b0: c30a 54be e8a0 3dbd 51b0 31be c004 253e
000002c0: 7cbf 4fbe 1afe 793e 20c1 f93d 183e 86be
000002d0: a6ac 683e 6c08 9bbe 90d5 91bc f3c1 43be
000002e0: f2dc 86be 2085 f83c 2105 18be 56a2 623e
000002f0: 0379 76be d71e 823e 9027 3d3e 654e 893e
00000300: 46a0 b7bd c22e 40be 2f4d 50be f55c 823e
00000310: cef1 1bbe 406b 1abd 004f 41bd 58c2 573d
00000320: daa3 80be bad0 7c3e 14ff 67be a330 9a3e
00000330: c45c f5bd 07f8 0bbe 7062 2cbd c495 b93d
00000340: 705f 68bd 1f76 9cbe 0289 5c3e b746 9b3e
00000350: f22f 1e3e a566 993e 70e8 aa3d 408c c4bc
00000360: 9aba 79be f403 89be 20de 57be 1a1a 9fbd
00000370: ce92 363e 015c 01be c0d6 42bc 0099 8dbb
00000380: 76f3 4cbe 80cc 07bc 075e 973e 1298 7a3e
00000390: 46cb 6e3e e061 f7bc 00f0 b13b be67 2b3e
000003a0: 7894 d0bd 1622 febd dd20 863e 7033 8f3c
000003b0: 62b3 53be cf17 843e 9028 503d 54c2 273e
000003c0: 6e27 88be 90bb 683d 0ec6 3f3e a8ed 34bd
000003d0: ed36 32be bed8 7a3e e2d4 113e c897 b23d
000003e0: cc4c 943d 8072 dd3b 3ecd 333e 0e15 89bd
000003f0: 808f 38be fc71 ef3d a44c a73d 7cc1 ee3d
0.010332227 0.25482574 -0.13276485 -0.08376233 0.20250973 -0.07742056 0.2931411 -0.12161107
-0.0033533573 -0.07254413 0.14285019 0.11732063 -0.16305283 0.20175883 -0.01945576 -0.07742764
-0.006176293 0.21308902 0.3003507 0.14898735 0.053577244 0.19982764 -0.12803723 -0.16001385
-0.08842224 -0.19817105 0.13165054 0.029084563 -0.10475683 -0.031084746 -0.0060710013 0.26253346
0.27332214 -0.23571685 0.112216264 0.118233085 0.11707571 -0.04174283 0.07657352 0.077047646
0.29801068 -0.2934574 -0.11619024 -0.2060027 -0.14852183 0.060116053 0.18673798 -0.23154232
0.19914714 0.25575802 -0.15092134 0.053441316 -0.15718913 0.065580994 -0.14195491 -0.11927633
-0.20496613 -0.2553287 0.24434099 -0.038666308 -0.008494258 -0.15237957 0.21341273 -0.17525285
-0.12384072 -0.23901345 -0.25746602 0.2718301 -0.23643568 -0.042271584 -0.088628724 0.11215225
0.08189535 -0.23471959 0.274978 -0.305002 0.03028363 -0.025579989 -0.07095578 0.20865574
0.25851813 0.039884865 -0.10814467 0.22763404 0.19236752 0.05499354 -0.08374542 0.012908787
0.27290192 0.033204228 -0.06033863 -0.2592342 -0.16407987 0.22113839 -0.010781914 -0.020389885
0.11921686 -0.2014482 -0.020683706 -0.086116225 0.16020304 0.24918166 0.19225666 0.22827885
-0.2736392 -0.10870123 0.036257327 -0.26006073 0.08305997 -0.20069948 0.1312046 0.24781254
-0.26192674 0.25656644 0.14286691 -0.20205891 0.29307464 -0.26518434 -0.2061306 -0.15231103
-0.015504777 0.054981917 -0.08985667 -0.2902178 -0.035343558 0.23230836 0.23574421 0.15327439
0.044454843 0.07607949 -0.23604189 0.1239869 -0.3047275 -0.12644568 -0.080464855 0.2248424
-0.008925527 -0.13947068 0.05349341 -0.25406426 -0.08106507 0.08479893 -0.020278215 -0.032155573
0.18713343 -0.23258765 -0.15460126 0.29637954 0.06092766 -0.04957491 0.15860024 0.18419686
-0.05116406 -0.12753922 -0.05004847 0.111178786 -0.039088607 0.17820057 -0.24969035 -0.15022467
0.2334179 0.040168256 0.06165722 0.10070321 -0.07234973 -0.12244624 0.08783999 -0.08114883
-0.12648487 0.0404526 0.07406074 -0.027646065 -0.2070723 -0.04629603 -0.17352416 0.16115093
-0.20287889 0.24413338 0.12195039 -0.2621925 0.2272211 -0.30279863 -0.01780203 -0.19116955
-0.26340443 0.030336916 -0.14845707 0.22132239 -0.240696 0.25414154 0.18472123 0.26817623
-0.089661166 -0.18767837 -0.20341943 0.25461546 -0.1522896 -0.037699938 -0.04719448 0.052675575
-0.2512501 0.24688998 -0.22655898 0.30115232 -0.11980584 -0.13668834 -0.042086065 0.09061769
-0.05673164 -0.3055887 0.2153664 0.3032739 0.15447977 0.29961124 0.08345115 -0.023992658
-0.24387589 -0.26760828 -0.21080828 -0.0776865 0.17829439 -0.12632753 -0.011892021 -0.0043212175
-0.20014748 -0.008288503 0.29563925 0.24472073 0.2331973 -0.030198038 0.0054302216 0.16738793
-0.10184568 -0.12408845 0.26196948 0.017480582 -0.20673898 0.25799415 0.050819933 0.16382724
-0.26592582 0.0568195 0.18727896 -0.04417196 -0.17403765 0.24496743 0.14241365 0.08720356
0.0724121 0.006758034 0.17558762 -0.06693469 -0.18023491 0.11691663 0.08168915 0.11657998

critic.fc2.bias f4 [32]
00000000: 82e8 f93d 2b33 26be f06a 02be ac2e 2ebe
00000010: 43d8 113e 00a9 d1ba beb4 a6bd 2802 753d
00000020: e285 87bd ff30 e8bd 40a3 8b3d e493 043d
00000030: 9ca1 01be 0a76 eebd babf a93d 95a4 093e
00000040: b0c7 6b3c bad8 b5bd b6d1 ae3d e890 fc3c
00000050: 8b7a 1ebe 099e eabd d87b 1e3d 2e05 e03d
00000060: ae9e 68bd ce0e af3d 1537 e0bd 3739 2d3e
00000070: f9fb 003e fc9f 073d 7a11 a13d ac17 7c3d
0.122025505 -0.16230457 -0.12736106 -0.17009991 0.14242654 -0.00159958 -0.081399426 0.05981651
-0.06617333 -0.1133747 0.06818247 0.032367602 -0.12659305 -0.11643608 0.08288522 0.1344169
0.014390871 -0.08879228 0.08536093 0.030830815 -0.15476434 -0.11455924 0.038692325 0.10938488
-0.056791954 0.08547746 -0.10948006 0.16916357 0.1259612 0.033111557 0.078646615 0.061546013

critic.fc_v.weight f4 [1, 32]
00000000: 5de8 96be 00df 213c f8e1 0b3e 4031 12bc
00000010: 189a 7f3e 0ea1 b73e 90f2 ff3d 6000 103e
00000020: dc51 7d3e 1095 15be e8e6 9a3d 9e81 b03e
00000030: bf16 51be 80ee 073d dcb4 2abe 9ade a7be
00000040: e045 673e 9472 ae3e bfe2 6bbe 28a5 233e
00000050: 34e4 053e 947d 2a3e 185a 703e c0d1 cb3e
00000060: feb3 a53e b507 bfbe 402c 2bbe e8e5 673e
00000070: 3043 79be f878 ab3d ed2f 3bbe c870 ad3d
-0.29474154 0.0098798275 0.13660419 -0.008922875 0.24961126 0.35865062 0.12497437 0.14062643
0.24738258 -0.14607644 0.07563573 0.3447389 -0.20418833 0.033186436 -0.16670555 -0.3278702
0.22585249 0.3407179 -0.23035716 0.15980971 0.13075334 0.16649467 0.23471868 0.39808464
0.32363886 -0.37310567 -0.16716099 0.22646296 -0.24342036 0.08372682 -0.18280001 0.08468777
